…
39;), tf.keras.layers.Conv2DTranspose(32, kernel_size=3, padding=&#39;same&#39;, strides=2, activation=&#39;relu&#39;), tf.keras.layers.Conv2DTranspose(3, kernel_size=3, padding=&#39;same&#39;, strides=2, activation=&#39;linear&#39;), ]) model.summary() model.compile(optimizer=&#39;adam&#39;, loss=tf.losses.SparseCategoricalCrossentropy(from_logits=True), metrics=[&#39;accuracy&#39;]) . Model: &#34;sequential&#34; _________________________________________________________________ Layer (type) Output Shape Param # ================================================================= conv2d (Conv2D) (None, 128, 128, 32) 896 _________________________________________________________________ conv2d_1 (Conv2D) (None, 128, 128, 32) 9248 _________________________________________________________________ max_pooling2d (MaxPooling2D) (None, 64, 64, 32) 0 _________________________________________________________________ conv2d_2 (Conv2D) (None, 64, 64, 64) 18496 _________________________________________________________________ max_pooling2d_1 (MaxPooling2 (None, 32, 32, 64) 0 _________________________________________________________________ conv2d_3 (Conv2D) (None, 32, 32, 128) 73856 _________________________________________________________________ max_pooling2d_2 (MaxPooling2 (None, 16, 16, 128) 0 _________________________________________________________________ conv2d_transpose (Conv2DTran (None, 32, 32, 64) 73792 _________________________________________________________________ conv2d_transpose_1 (Conv2DTr (None, 64, 64, 32) 18464 _________________________________________________________________ conv2d_transpose_2 (Conv2DTr (None, 128, 128, 3) 867 ================================================================= Total params: 195,619 Trainable params: 195,619 Non-trainable params: 0 _________________________________________________________________ . La funcion tensorflow.keras.utils.plot_model() nos permite generar una imagen de la estructura de nuestra red. Para que funcione es necesario tener instalados pydot y graphviz, pero podemos ins
…
x_up_1) x_up = tf.keras.layers.UpSampling2D(2)(x_up_1) x_up = tf.keras.layers.concatenate((x, x_up)) x_up = conv_3_up(x_up) . u_net = tf.keras.Model(x, x_up) u_net.summary() u_net.compile(optimizer=&#39;adam&#39;, loss=tf.losses.SparseCategoricalCrossentropy(from_logits=True), metrics=[&#39;accuracy&#39;]) . Model: &#34;model&#34; __________________________________________________________________________________________________ Layer (type) Output Shape Param # Connected to ================================================================================================== input_1 (InputLayer) [(None, 128, 128, 3) 0 __________________________________________________________________________________________________ conv2d_4 (Conv2D) (None, 128, 128, 32) 896 input_1[0][0] __________________________________________________________________________________________________ conv2d_5 (Conv2D) (None, 128, 128, 32) 9248 conv2d_4[0][0] __________________________________________________________________________________________________ max_pooling2d_3 (MaxPooling2D) (None, 64, 64, 32) 0 conv2d_5[0][0] __________________________________________________________________________________________________ conv2d_6 (Conv2D) (None, 64, 64, 64) 18496 max_pooling2d_3[0][0] __________________________________________________________________________________________________ max_pooling2d_4 (MaxPooling2D) (None, 32, 32, 64) 0 conv2d_6[0][0] __________________________________________________________________________________________________ conv2d_7 (Conv2D) (None, 32, 32, 128) 73856 max_pooling2d_4[0][0] __________________________________________________________________________________________________ max_pooling2d_5 (MaxPooling2D) (None, 16, 16, 128) 0 conv2d_7[0][0] __________________________________________________________________________________________________ up_sampling2d (UpSampling2D) (None, 32, 32, 128) 0 max_pooling2d_5[0][0] __________________________________________________________________________________________________ concatenate (Concatenate) (None, 32, 32, 192) 0 max_pooling2d_4[0][0] up_sampling2d[0][0] __________________________________________________________________________________________________ conv2d_8 (Conv2D) (None, 32, 32, 64) 110656 concatenate[0][0] __________________________________________________________________________________________________ up_sampling2d_1 (UpSampling2D) (None, 64, 64, 64) 0 conv2d_8[0][0] __________________________________________________________________________________________________ concatenate_1 (Concatenate) (None, 64, 64, 96) 0 max_pooling2d_3[0][0] up_sampling2d_1[0][0] __________________________________________________________________________________________________ conv2d_9 (Conv2D) (None, 64, 64, 32) 27680 concatenate_1[0][0] __________________________________________________________________________________________________ up_sampling2d_2 (UpSampling2D) (None, 128, 128, 32) 0 conv2d_9[0][0] __________________________________________________________________________________________________ concatenate_2 (Concatenate) (None, 128, 128, 35) 0 input_1[0][0] up_sampling2d_2[0][0] __________________________________________________________________________________________________ conv2d_10 (Conv2D) (None, 128, 128, 3) 948 concatenate_2[0][0] ================================================================================================== Total params: 241,780 Trainable params: 241,780 Non-trainable params: 0 __________________________________________________________________________________________________ . plot_model(u_net, to_file=&quot;u-net.png&quot;, show_shapes=True) . history_unet = u_net.fit(train.batch(3
…
